al-mlp/torch/model_checkpoint.pt (torch_old, 1456 bytes, 3 tensors)

lin1.weight f4 [10, 8]
00000000: 98d7 0f3e 0624 60be 0a1a 263e 4029 7bbe
00000010: bbe8 963e 5764 85be 9b2a a33e 4ed3 7ebe
00000020: d053 a13d 609e 3cbc 43e9 9c3e 46b6 81be
00000030: 64a2 aebe deed 353e a18b 44be 36e6 3d3e
00000040: 4848 a43d f4d8 f23d fa33 e3bd 0b84 8f3e
00000050: f8d3 93be 7d3d 30be 3a44 70be 80bf 103d
00000060: a872 093d 2855 283d 5f65 9a3e 0f59 963e
00000070: f01f 5fbd 233c 903e 5839 fc3d b4ad f93d
00000080: c841 823d f996 b13e fc5a 92be d83e 3d3d
00000090: 1ca6 91be 64b4 b8bd 3e08 533e 912f 17be
000000a0: 68bf 74bd 6f9a 853e d407 bbbd 3838 ea3d
000000b0: 2c9a ecbd 0cba b3bd c842 26bd 1463 87be
000000c0: 203a 423c d3c8 ae3e 320a 03be 98fc 7fbd
000000d0: 20e2 15bc 5b3d 67be 3aa2 643e 300d 113d
000000e0: 909a 173d 7831 30be c184 843e 2564 5fbe
000000f0: 8678 5d3e c1ed ab3e 62cc ffbd ea45 423e
00000100: bad6 753e 165a 1c3e ec2d 81be 2408 9f3d
00000110: 858d 44be e630 98be f300 ab3e 047a 94be
00000120: 5db8 923e d25e 9cbe 6055 c63d 6ea0 b3be
00000130: b21e a9be db30 a13e 90f8 683d dac3 703e
0.14047086 -0.21888742 0.1622087 -0.24527454 0.29474434 -0.26053116 0.31868443 -0.24885294
0.07877314 -0.011512369 0.30646715 -0.25334376 -0.3410827 0.1776652 -0.19193889 0.1854485
0.08021599 0.11857787 -0.11093898 0.28030428 -0.28872657 -0.17210956 -0.23463526 0.03533888
0.03355661 0.041096836 0.30155465 0.2936482 -0.054473817 0.2817088 0.12315625 0.12191334
0.06360203 0.34685495 -0.2858504 0.04620251 -0.28447044 -0.09018782 0.20608613 -0.14764239
-0.05975285 0.26094386 -0.091323525 0.11436504 -0.115528435 -0.0877572 -0.04059103 -0.26442778
0.011854678 0.34137592 -0.12796858 -0.06249675 -0.009148151 -0.22581999 0.2232751 0.035412967
0.037012637 -0.17206371 0.25882533 -0.21815546 0.21628007 0.3357983 -0.12490155 0.18971983
0.24007693 0.1526874 -0.25230348 0.077652246 -0.1919461 -0.29724807 0.33399162 -0.2899934
0.28656283 -0.30541092 0.09684253 -0.35083336 -0.3303123 0.31482586 0.056877673 0.23512211

lin1.bias f4 [10]
00000000: 9728 29be 0cda fabd fa68 193e cf20 b03e
00000010: 50b7 1e3d 7411 38be 910d b0be 901c fe3d
00000020: c041 35be 61b1 9b3e
-0.1651939 -0.122486204 0.14981452 0.3440003 0.03874904 -0.17975408 -0.3438535 0.124077916
-0.17700863 0.30408767

lin2.weight f4 [1, 10]
00000000: f2bd 3c3e 923c 593e 0053 5bbe 72f4 98be
00000010: 567a 433e 50e6 febc 8025 0dbb 3031 dcbc
00000020: 52e3 473e 4809 2c3e
0.18431833 0.21214512 -0.2141838 -0.29873997 0.19089636 -0.031115681 -0.0021537244 -0.026878923
0.1952031 0.16800416
